Loaded 2000000 word vectors.
Non-zero embeddings:  2147  Zero embeddings:  80
_________________________________________________________________
Layer (type)                 Output Shape              Param #   
=================================================================
embeddingInput (InputLayer)  (None, 20)                0         
_________________________________________________________________
embedding_1 (Embedding)      (None, 20, 300)           668400    
_________________________________________________________________
bidirectional_1 (Bidirection (None, 128)               186880    
_________________________________________________________________
dense_1 (Dense)              (None, 100)               12900     
_________________________________________________________________
dense_2 (Dense)              (None, 10)                1010      
_________________________________________________________________
dense_3 (Dense)              (None, 1)                 11        
=================================================================
Total params: 869,201
Trainable params: 869,201
Non-trainable params: 0
_________________________________________________________________
None
Epoch 1/7

 32/540 [>.............................] - ETA: 37s - loss: 7.1074 - acc: 0.4688
 96/540 [====>.........................] - ETA: 11s - loss: 4.0278 - acc: 0.4479
160/540 [=======>......................] - ETA: 6s - loss: 2.8839 - acc: 0.4875 
…
