Loaded 2000000 word vectors.
Non-zero embeddings:  2147  Zero embeddings:  80
_________________________________________________________________
Layer (type)                 Output Shape              Param #   
=================================================================
embeddingInput (InputLayer)  (None, 20)                0         
_________________________________________________________________
embedding_1 (Embedding)      (None, 20, 300)           668400    
_________________________________________________________________
bidirectional_1 (Bidirection (None, 256)               439296    
_________________________________________________________________
dense_1 (Dense)              (None, 100)               25700     
_________________________________________________________________
dense_3 (Dense)              (None, 1)                 101       
=================================================================
Total params: 1,133,497
Trainable params: 1,133,497
Non-trainable params: 0
_________________________________________________________________
None
Epoch 1/3

 32/540 [>.............................] - ETA: 37s - loss: 5.8100 - acc: 0.4688
 64/540 [==>...........................] - ETA: 17s - loss: 3.9445 - acc: 0.4688
 96/540 [====>.........................] - ETA: 11s - loss: 3.0236 - acc: 0.4896
…
