Loaded 2000000 word vectors.
Non-zero embeddings:  2147  Zero embeddings:  80
_________________________________________________________________
Layer (type)                 Output Shape              Param #   
=================================================================
embeddingInput (InputLayer)  (None, 20)                0         
_________________________________________________________________
embedding_1 (Embedding)      (None, 20, 300)           668400    
_________________________________________________________________
bidirectional_1 (Bidirection (None, 256)               439296    
_________________________________________________________________
dense_1 (Dense)              (None, 100)               25700     
_________________________________________________________________
dense_3 (Dense)              (None, 1)                 101       
=================================================================
Total params: 1,133,497
Trainable params: 1,133,497
Non-trainable params: 0
_________________________________________________________________
None
Epoch 1/5

 32/540 [>.............................] - ETA: 43s - loss: 5.8100 - acc: 0.4688
 64/540 [==>...........................] - ETA: 20s - loss: 3.6918 - acc: 0.4688
128/540 [======>.......................] - ETA: 9s - loss: 2.4097 - acc: 0.4688 
…
