Loaded 2000000 word vectors.
Non-zero embeddings:  2147  Zero embeddings:  80
_________________________________________________________________
Layer (type)                 Output Shape              Param #   
=================================================================
embeddingInput (InputLayer)  (None, 20)                0         
_________________________________________________________________
embedding_1 (Embedding)      (None, 20, 300)           668400    
_________________________________________________________________
lstm_1 (LSTM)                (None, 384)               1052160   
_________________________________________________________________
dense_1 (Dense)              (None, 100)               38500     
_________________________________________________________________
dense_3 (Dense)              (None, 1)                 101       
=================================================================
Total params: 1,759,161
Trainable params: 1,759,161
Non-trainable params: 0
_________________________________________________________________
None
Epoch 1/5

 32/540 [>.............................] - ETA: 17s - loss: 3.3609 - acc: 0.4375
 64/540 [==>...........................] - ETA: 9s - loss: 2.1976 - acc: 0.5469 
 96/540 [====>.........................] - ETA: 6s - loss: 1.8891 - acc: 0.5104
…
