Loaded 2000000 word vectors.
Non-zero embeddings:  2147  Zero embeddings:  80
_________________________________________________________________
Layer (type)                 Output Shape              Param #   
=================================================================
embeddingInput (InputLayer)  (None, 20)                0         
_________________________________________________________________
embedding_1 (Embedding)      (None, 20, 300)           668400    
_________________________________________________________________
lstm_1 (LSTM)                (None, 448)               1342208   
_________________________________________________________________
dense_1 (Dense)              (None, 100)               44900     
_________________________________________________________________
dense_3 (Dense)              (None, 1)                 101       
=================================================================
Total params: 2,055,609
Trainable params: 2,055,609
Non-trainable params: 0
_________________________________________________________________
None
Epoch 1/5

 32/540 [>.............................] - ETA: 29s - loss: 9.1937 - acc: 0.3438
 64/540 [==>...........................] - ETA: 15s - loss: 5.6073 - acc: 0.3750
 96/540 [====>.........................] - ETA: 10s - loss: 4.1146 - acc: 0.4271
…
