Loaded 2000000 word vectors.
Non-zero embeddings:  2147  Zero embeddings:  80
_________________________________________________________________
Layer (type)                 Output Shape              Param #   
=================================================================
embeddingInput (InputLayer)  (None, 20)                0         
_________________________________________________________________
embedding_1 (Embedding)      (None, 20, 300)           668400    
_________________________________________________________________
lstm_1 (LSTM)                (None, 640)               2408960   
_________________________________________________________________
dense_1 (Dense)              (None, 100)               64100     
_________________________________________________________________
dense_3 (Dense)              (None, 1)                 101       
=================================================================
Total params: 3,141,561
Trainable params: 3,141,561
Non-trainable params: 0
_________________________________________________________________
None
Epoch 1/3

 32/540 [>.............................] - ETA: 21s - loss: 7.6130 - acc: 0.4375
 64/540 [==>...........................] - ETA: 12s - loss: 4.5240 - acc: 0.4844
 96/540 [====>.........................] - ETA: 9s - loss: 3.3920 - acc: 0.4688 
…
