Loaded 2000000 word vectors.
Non-zero embeddings:  2147  Zero embeddings:  80
_________________________________________________________________
Layer (type)                 Output Shape              Param #   
=================================================================
embeddingInput (InputLayer)  (None, 20)                0         
_________________________________________________________________
embedding_1 (Embedding)      (None, 20, 300)           668400    
_________________________________________________________________
lstm_1 (LSTM)                (None, 896)               4290048   
_________________________________________________________________
dense_1 (Dense)              (None, 100)               89700     
_________________________________________________________________
dense_3 (Dense)              (None, 1)                 101       
=================================================================
Total params: 5,048,249
Trainable params: 5,048,249
Non-trainable params: 0
_________________________________________________________________
None
Epoch 1/5

 32/540 [>.............................] - ETA: 32s - loss: 5.6446 - acc: 0.4062
 64/540 [==>...........................] - ETA: 20s - loss: 3.7184 - acc: 0.3750
 96/540 [====>.........................] - ETA: 15s - loss: 2.8460 - acc: 0.3958
…
