Loaded 2000000 word vectors.
Non-zero embeddings:  2147  Zero embeddings:  80
_________________________________________________________________
Layer (type)                 Output Shape              Param #   
=================================================================
embeddingInput (InputLayer)  (None, 20)                0         
_________________________________________________________________
embedding_1 (Embedding)      (None, 20, 300)           668400    
_________________________________________________________________
lstm_1 (LSTM)                (None, 128)               219648    
_________________________________________________________________
dense_1 (Dense)              (None, 100)               12900     
_________________________________________________________________
dense_3 (Dense)              (None, 1)                 101       
=================================================================
Total params: 901,049
Trainable params: 901,049
Non-trainable params: 0
_________________________________________________________________
None
Epoch 1/5

 32/540 [>.............................] - ETA: 22s - loss: 5.0873 - acc: 0.5625
 96/540 [====>.........................] - ETA: 6s - loss: 3.0151 - acc: 0.4479 
160/540 [=======>......................] - ETA: 3s - loss: 2.3507 - acc: 0.4437
…
