Loaded 2000000 word vectors.
Non-zero embeddings:  2147  Zero embeddings:  80
_________________________________________________________________
Layer (type)                 Output Shape              Param #   
=================================================================
embeddingInput (InputLayer)  (None, 20)                0         
_________________________________________________________________
embedding_1 (Embedding)      (None, 20, 300)           668400    
_________________________________________________________________
lstm_1 (LSTM)                (None, 128)               219648    
_________________________________________________________________
dense_1 (Dense)              (None, 100)               12900     
_________________________________________________________________
dense_2 (Dense)              (None, 10)                1010      
_________________________________________________________________
dense_3 (Dense)              (None, 1)                 11        
=================================================================
Total params: 901,969
Trainable params: 901,969
Non-trainable params: 0
_________________________________________________________________
None
Epoch 1/3

 32/540 [>.............................] - ETA: 24s - loss: 2.9025 - acc: 0.4688
 96/540 [====>.........................] - ETA: 7s - loss: 1.9674 - acc: 0.4792 
160/540 [=======>......................] - ETA: 4s - loss: 1.6467 - acc: 0.4500
…
