Loaded 2000000 word vectors.
Non-zero embeddings:  2147  Zero embeddings:  80
_________________________________________________________________
Layer (type)                 Output Shape              Param #   
=================================================================
embeddingInput (InputLayer)  (None, 20)                0         
_________________________________________________________________
embedding_1 (Embedding)      (None, 20, 300)           668400    
_________________________________________________________________
bidirectional_1 (Bidirection (None, 512)               1140736   
_________________________________________________________________
dense_1 (Dense)              (None, 100)               51300     
_________________________________________________________________
dense_2 (Dense)              (None, 10)                1010      
_________________________________________________________________
dense_3 (Dense)              (None, 1)                 11        
=================================================================
Total params: 1,861,457
Trainable params: 1,861,457
Non-trainable params: 0
_________________________________________________________________
None
Epoch 1/3

 32/540 [>.............................] - ETA: 42s - loss: 2.0419 - acc: 0.5625
 64/540 [==>...........................] - ETA: 21s - loss: 1.8120 - acc: 0.5312
 96/540 [====>.........................] - ETA: 13s - loss: 1.6576 - acc: 0.5312
…
