Loaded 2000000 word vectors.
Non-zero embeddings:  2147  Zero embeddings:  80
_________________________________________________________________
Layer (type)                 Output Shape              Param #   
=================================================================
embeddingInput (InputLayer)  (None, 20)                0         
_________________________________________________________________
embedding_1 (Embedding)      (None, 20, 300)           668400    
_________________________________________________________________
bidirectional_1 (Bidirection (None, 512)               1140736   
_________________________________________________________________
dense_1 (Dense)              (None, 100)               51300     
_________________________________________________________________
dense_3 (Dense)              (None, 1)                 101       
=================================================================
Total params: 1,860,537
Trainable params: 1,860,537
Non-trainable params: 0
_________________________________________________________________
None
Epoch 1/3

 32/540 [>.............................] - ETA: 37s - loss: 1.9217 - acc: 0.5625
 64/540 [==>...........................] - ETA: 18s - loss: 1.4844 - acc: 0.5312
 96/540 [====>.........................] - ETA: 12s - loss: 1.2749 - acc: 0.5312
…
