Loaded 2000000 word vectors.
Non-zero embeddings:  2147  Zero embeddings:  80
_________________________________________________________________
Layer (type)                 Output Shape              Param #   
=================================================================
embeddingInput (InputLayer)  (None, 20)                0         
_________________________________________________________________
embedding_1 (Embedding)      (None, 20, 300)           668400    
_________________________________________________________________
lstm_1 (LSTM)                (None, 576)               2020608   
_________________________________________________________________
dense_1 (Dense)              (None, 100)               57700     
_________________________________________________________________
dense_3 (Dense)              (None, 1)                 101       
=================================================================
Total params: 2,746,809
Trainable params: 2,746,809
Non-trainable params: 0
_________________________________________________________________
None
Epoch 1/5

 32/540 [>.............................] - ETA: 19s - loss: 4.9153 - acc: 0.3125
 64/540 [==>...........................] - ETA: 11s - loss: 2.9516 - acc: 0.5000
 96/540 [====>.........................] - ETA: 8s - loss: 2.5223 - acc: 0.4271 
…
