Loaded 2000000 word vectors.
Non-zero embeddings:  2147  Zero embeddings:  80
_________________________________________________________________
Layer (type)                 Output Shape              Param #   
=================================================================
embeddingInput (InputLayer)  (None, 20)                0         
_________________________________________________________________
embedding_1 (Embedding)      (None, 20, 300)           668400    
_________________________________________________________________
lstm_1 (LSTM)                (None, 320)               794880    
_________________________________________________________________
dense_1 (Dense)              (None, 100)               32100     
_________________________________________________________________
dense_3 (Dense)              (None, 1)                 101       
=================================================================
Total params: 1,495,481
Trainable params: 1,495,481
Non-trainable params: 0
_________________________________________________________________
None
Epoch 1/5

 32/540 [>.............................] - ETA: 15s - loss: 8.0645 - acc: 0.3750
 64/540 [==>...........................] - ETA: 7s - loss: 4.7484 - acc: 0.4688 
 96/540 [====>.........................] - ETA: 5s - loss: 3.6357 - acc: 0.4792
…
