Loaded 2000000 word vectors.
Non-zero embeddings:  2147  Zero embeddings:  80
_________________________________________________________________
Layer (type)                 Output Shape              Param #   
=================================================================
embeddingInput (InputLayer)  (None, 20)                0         
_________________________________________________________________
embedding_1 (Embedding)      (None, 20, 300)           668400    
_________________________________________________________________
lstm_1 (LSTM)                (None, 896)               4290048   
_________________________________________________________________
dense_1 (Dense)              (None, 100)               89700     
_________________________________________________________________
dense_2 (Dense)              (None, 10)                1010      
_________________________________________________________________
dense_3 (Dense)              (None, 1)                 11        
=================================================================
Total params: 5,049,169
Trainable params: 5,049,169
Non-trainable params: 0
_________________________________________________________________
None
Epoch 1/5

 32/540 [>.............................] - ETA: 32s - loss: 6.2740 - acc: 0.3438
 64/540 [==>...........................] - ETA: 20s - loss: 3.9736 - acc: 0.3906
 96/540 [====>.........................] - ETA: 15s - loss: 3.0768 - acc: 0.4062
…
