Loaded 2000000 word vectors.
Non-zero embeddings:  2147  Zero embeddings:  80
_________________________________________________________________
Layer (type)                 Output Shape              Param #   
=================================================================
embeddingInput (InputLayer)  (None, 20)                0         
_________________________________________________________________
embedding_1 (Embedding)      (None, 20, 300)           668400    
_________________________________________________________________
lstm_1 (LSTM)                (None, 1792)              15002624  
_________________________________________________________________
dense_1 (Dense)              (None, 100)               179300    
_________________________________________________________________
dense_3 (Dense)              (None, 1)                 101       
=================================================================
Total params: 15,850,425
Trainable params: 15,850,425
Non-trainable params: 0
_________________________________________________________________
None
Epoch 1/5

 32/540 [>.............................] - ETA: 1:08 - loss: 3.4982 - acc: 0.5625
 64/540 [==>...........................] - ETA: 47s - loss: 2.4546 - acc: 0.5000 
 96/540 [====>.........................] - ETA: 39s - loss: 1.9730 - acc: 0.4583
…
