Loaded 2000000 word vectors.
Non-zero embeddings:  2147  Zero embeddings:  80
_________________________________________________________________
Layer (type)                 Output Shape              Param #   
=================================================================
embeddingInput (InputLayer)  (None, 20)                0         
_________________________________________________________________
embedding_1 (Embedding)      (None, 20, 300)           668400    
_________________________________________________________________
lstm_1 (LSTM)                (None, 640)               2408960   
_________________________________________________________________
dense_1 (Dense)              (None, 100)               64100     
_________________________________________________________________
dense_2 (Dense)              (None, 10)                1010      
_________________________________________________________________
dense_3 (Dense)              (None, 1)                 11        
=================================================================
Total params: 3,142,481
Trainable params: 3,142,481
Non-trainable params: 0
_________________________________________________________________
None
Epoch 1/3

 32/540 [>.............................] - ETA: 22s - loss: 6.7619 - acc: 0.4375
 64/540 [==>...........................] - ETA: 12s - loss: 4.1792 - acc: 0.4844
 96/540 [====>.........................] - ETA: 9s - loss: 3.2736 - acc: 0.4688 
…
