Loaded 2000000 word vectors.
Non-zero embeddings:  2147  Zero embeddings:  80
_________________________________________________________________
Layer (type)                 Output Shape              Param #   
=================================================================
embeddingInput (InputLayer)  (None, 20)                0         
_________________________________________________________________
embedding_1 (Embedding)      (None, 20, 300)           668400    
_________________________________________________________________
lstm_1 (LSTM)                (None, 256)               570368    
_________________________________________________________________
dense_1 (Dense)              (None, 100)               25700     
_________________________________________________________________
dense_2 (Dense)              (None, 10)                1010      
_________________________________________________________________
dense_3 (Dense)              (None, 1)                 11        
=================================================================
Total params: 1,265,489
Trainable params: 1,265,489
Non-trainable params: 0
_________________________________________________________________
None
Epoch 1/3

 32/540 [>.............................] - ETA: 46s - loss: 8.2596 - acc: 0.4688
 64/540 [==>...........................] - ETA: 22s - loss: 5.2561 - acc: 0.4844
 96/540 [====>.........................] - ETA: 14s - loss: 4.0124 - acc: 0.5104
…
