Loaded 2000000 word vectors.
Non-zero embeddings:  2147  Zero embeddings:  80
_________________________________________________________________
Layer (type)                 Output Shape              Param #   
=================================================================
embeddingInput (InputLayer)  (None, 20)                0         
_________________________________________________________________
embedding_1 (Embedding)      (None, 20, 300)           668400    
_________________________________________________________________
lstm_1 (LSTM)                (None, 64)                93440     
_________________________________________________________________
dense_1 (Dense)              (None, 100)               6500      
_________________________________________________________________
dense_3 (Dense)              (None, 1)                 101       
=================================================================
Total params: 768,441
Trainable params: 768,441
Non-trainable params: 0
_________________________________________________________________
None
Epoch 1/5

 32/540 [>.............................] - ETA: 22s - loss: 7.9911 - acc: 0.3438
 96/540 [====>.........................] - ETA: 6s - loss: 3.9013 - acc: 0.4375 
192/540 [=========>....................] - ETA: 2s - loss: 2.5286 - acc: 0.5052
…
