Loaded 2000000 word vectors.
Non-zero embeddings:  2147  Zero embeddings:  80
_________________________________________________________________
Layer (type)                 Output Shape              Param #   
=================================================================
embeddingInput (InputLayer)  (None, 20)                0         
_________________________________________________________________
embedding_1 (Embedding)      (None, 20, 300)           668400    
_________________________________________________________________
lstm_1 (LSTM)                (None, 256)               570368    
_________________________________________________________________
dense_1 (Dense)              (None, 100)               25700     
_________________________________________________________________
dense_3 (Dense)              (None, 1)                 101       
=================================================================
Total params: 1,264,569
Trainable params: 1,264,569
Non-trainable params: 0
_________________________________________________________________
None
Epoch 1/3

 32/540 [>.............................] - ETA: 24s - loss: 3.6704 - acc: 0.5938
 64/540 [==>...........................] - ETA: 12s - loss: 2.6190 - acc: 0.5469
 96/540 [====>.........................] - ETA: 7s - loss: 2.1694 - acc: 0.5312 
…
